Deep_Learning/ConvolutionalNeuralNetworks---CIFAR10/weights.pkl (torch, 207603 bytes, 50 tensors)

layer0.0.weight f4 [3, 3, 3, 3]
-0.019481825 -0.15633565 0.061227243 -0.02921982 -0.23744948 -0.20463206 -0.3205057 -0.19077337
0.12759802 -0.099705815 0.0993121 0.0808784 0.2752761 0.25803235 0.29447827 0.004962202
-0.3524917 -0.10977319 -0.052629557 0.11418567 -0.2337825 0.36836478 0.50002104 0.24980284
0.004900803 -0.0034371812 -0.14577857 -0.18697876 -0.3769372 -0.045992833 -0.10262321 0.2216914
-0.007067757 0.010826571 -0.03433524 0.014640155 -0.04199134 -0.097773045 0.317497 -0.1285651
0.6198157 0.336312 0.099589966 -0.29340222 0.2062909 0.04122612 -0.01896782 0.012973602
-0.26670983 0.3482574 -0.07320857 -0.049023658 -0.327621 -0.16835763 -0.20237944 -0.3831165
-0.07861739 0.11803591 0.36275777 -0.29741338 0.03938635 0.38284948 0.0010486618 0.019640846
-0.17417239 0.080810905 -0.06747065 0.3162065 -0.10229193 -0.26944867 0.2864447 -0.12246368
-0.08005637 -0.00911635 0.058807503 -0.15834095 0.20226756 -0.15626974 -0.017932657 0.47483405
0.0016901034
00000000: 5998 9fbc 7416 20be 6bc9 7a3d 675e efbc
00000010: f525 73be 118b 51be 5319 a4be 185a 43be
00000020: 0ea9 023e 9032 ccbd 2464 cb3d 93a3 a53d
00000030: fdf0 8c3e d11c 843e dbc5 963e f899 a23b
00000040: cb79 b4be c4d0 e0bd 1792 57bd 2dda e93d
00000050: ae64 6fbe 4f9a bc3e 6101 003f 51cc 7f3e
00000060: ea96 a03b 5542 61bb fa46 15be 5c77 3fbe
00000070: eafd c0be fb62 3cbd 1e2c d2bd 1203 633e
00000080: a598 e7bb ee61 313c 1ca3 0cbd 43dd 6f3c
00000090: 1dff 2bbd 3c3d c8bd f78e a23e 92a6 03be
000000a0: 3eac 1e3f 1631 ac3e d3f5 cb3d d138 96be
000000b0: ec3d 533e b8dc 283d 6762 9bbc 3b8f 543c
000000c0: 318e 88be cb4e b23e 60ee 95bd 08cd 48bd
000000d0: f1bd a7be f165 2cbe 8e3c 4fbe d927 c4be
000000e0: 2702 a1bd d0bc f13d 63bb b93e 9146 98be
000000f0: 9553 213d d904 c43e 4073 893a d7e5 a03c
00000100: 3f5a 32be 3080 a53d 0d2e 8abd d2e5 a13e
00000110: 6e7e d1bd 2df5 89be e1a8 923e 3dce fabd
00000120: 98f4 a3bd be5c 15bc 23e0 703d 2124 22be
00000130: 3a1f 4f3e 2d05 20be 82e7 92bc 731d f33e
00000140: 7686 dd3a

layer0.0.bias f4 [3]
0.28050473 -0.87490124 0.22822973
00000000: 519e 8f3e 87f9 5fbf 0eb5 693e

layer0.1.weight f4 [3]
0.43362108 0.52432597 0.50200945
00000000: 9503 de3e 3a3a 063f b183 003f

layer0.1.bias f4 [3]
0.37556377 1.1452868 1.2681998
00000000: e549 c03e c298 923f 5f54 a23f

layer0.1.running_mean f4 [3]
0.29880884 -0.8715583 0.22886267
00000000: 79fd 983e 721e 5fbf fa5a 6a3e

layer0.1.running_var f4 [3]
0.5888469 0.27855393 0.45507053
00000000: acbe 163f 9f9e 8e3e 01ff e83e

layer1.0.weight f4 [10, 3, 3, 3]
-0.19354035 -0.46725228 -0.32046765 0.02118547 -0.122362286 -0.40987763 0.18375096 0.26384315
0.31559506 -0.20377654 0.14563885 0.20760515 0.24860173 -0.26972413 0.16181584 0.14887567
0.076053135 0.1697498 0.32614213 0.39886862 0.32077652 0.36284074 0.2069868 -0.45873865
0.46900374 0.061162587 0.089925624 -0.09025999 0.19435789 0.27680176 -0.17742677 -0.05915898
0.10349667 -0.28629997 0.071122475 0.20063522 0.10510822 0.21085678 0.2992114 -0.20394759
-0.24823129 -0.46840364 -0.12873973 -0.5499373 -0.043307096 -0.34475908 -0.1300663 -0.13068156
-0.006941137 0.20014931 0.0041482514 -0.19357005 -0.33037725 -0.08804105 0.01586706 0.10665732
-0.07026086 0.31061405 0.5949287 -0.07282096 -0.09449269 0.16455278 -0.16082399 -0.33202827
-0.31515616 -0.090959504 0.09398592 0.013818717 -0.65079 0.02206578 -0.278622 0.13451447
0.4335936 0.21596654 -0.16092381 -0.05265161 -0.009581037 -0.3782356 0.18969136 -0.30166307
-0.1780858 0.0031597887 0.04775823 0.09470346 0.028156055 -0.09298093 -0.101683386 -0.14470713
0.18806997 0.23016869 -0.016216477 -0.020715654 0.019812299 -0.26801026 -0.84680444 0.023503847
-0.09559346 -0.061377473 -0.31384316 -0.04880858 0.18356138 0.032951716 0.092032865 0.5740786
-0.075373024 -0.2675775 0.50782883 0.06767786 0.09182349 0.18395366 0.15553252 -0.12999813
0.114656076 0.03945022 -0.16801749 -0.073778525 0.10891315 -0.021471983 0.72206914 -0.27734867
-0.085071236 -0.2894071 0.22527008 -0.050911907 0.18490212 0.0315908 -0.16420452 -0.4562903
0.30635992 0.21593943 -0.67927825 0.40469286 -0.15830684 0.16126038 0.02365391 0.02223107
0.121495225 -0.047025204 0.027084714 -0.26495698 -0.6072676 0.33604833 0.25916648 -0.02647034
-0.25225708 0.2793313 0.26708877 -0.23914276 -0.25653493 -0.15535426 -0.050390672 0.28625536
0.26512673 0.08669322 -0.30909023 -0.26292592 0.38865823 -0.027426723 -0.26852095 0.054156646
0.2075049 0.3630618 -0.0181811 -0.105564356 0.26023126 0.05465712 -0.034356095 0.08018069
-0.018985895 0.0144154765 -0.15830474 -0.010775505 0.045185175 -0.13318564 0.13865796 0.319906
-0.5370851 -0.08352075 -0.19750531 0.373311 -0.16462491 0.42060658 -0.3337618 -0.048614096
0.6307633 -0.40761033 -0.036409423 -0.24848942 0.19429141 0.063026465 0.53710884 0.0052890005
0.2924747 0.76259243 -0.08955073 -0.1542878 0.023911435 -0.30755544 -0.26317734 0.12971267
0.027631724 -0.11116176 0.081143826 -0.36560938 -0.21057959 0.2717776 0.3722954 0.08402424
0.23700187 -0.16039951 0.18705824 0.28057256 0.20492342 -0.041019198 -0.083161324 -0.108658366
-0.35010806 -0.41573355 0.042032022 -0.32525888 -0.32230228 0.39485237 -0.09864482 0.07468929
0.3315622 0.16404904 -0.23363242 0.090294965 -0.2690226 -0.23356812 0.5600527 -0.23333856
-0.0030091314 0.005036429 -0.09268947 -0.014219228 0.33060738 -0.13941629 0.21292488 0.5661658
-0.23934786 0.07858322 0.08423481 -0.26870435 -0.3916853 -0.33075148 0.042620644 -0.4030814
-0.1721253 0.26812515 0.05664864 0.16617367 0.046957694 0.42037088 0.16776593 0.14444236
00000000: 712f 46be b13b efbe 5614 a4be 278d ad3c
00000010: 1499 fabd 7bdb d1be 3629 3c3e 7316 873e
00000020: ad95 a13e ccaa 50be 5a22 153e 7296 543e
00000030: 7491 7e3e 4819 8abe 0db3 253e dd72 183e
00000040: bfc1 9b3d e4d2 2d3e 1afc a63e 8238 cc3e
00000050: d23c a43e 43c6 b93e 59f4 533e cbdf eabe
00000060: 4221 f03e 9f85 7a3d ed2a b83d 3bda b8bd
00000070: c105 473e f6b8 8d3e 5daf 35be b050 72bd
00000080: 10f6 d33d e995 92be a9a8 913d 5273 4d3e
00000090: fa42 d73d d7ea 573e 3d32 993e a3d7 50be
000000a0: 5830 7ebe 9ad2 efbe 59d4 03be b1c8 0cbf
000000b0: c862 31bd 4384 b0be 1a30 05be 63d1 05be
000000c0: 7a72 e3bb f1f3 4c3e 0eee 873b 3a37 46be
000000d0: 3527 a9be de4e b4bd a3fb 813c 276f da3d
000000e0: ede4 8fbd ce08 9f3e 3f4d 183f 2823 95bd
000000f0: 6285 c1bd 8680 283e 0baf 24be 9cff a9be
00000100: 265c a1be fa48 babd b17b c03d e667 623c
00000110: 2c9a 26bf 4bc3 b43c 8ba7 8ebe 29be 093e
00000120: fbff dd3e 5526 5d3e 36c9 24be 37a9 57bd
00000130: c8f9 1cbc 19a8 c1be 743e 423e 9573 9abe
00000140: 205c 36be 7514 4f3b 229e 433d e3f3 c13d
00000150: 87a7 e63c c96c bebd 613f d0bd 1b2e 14be
00000160: 6a95 403e 57b1 6b3e 6bd8 84bc e0b3 a9bc
00000170: 674d a23c a438 89be 2dc8 58bf 248b c03c
00000180: 81c6 c3bd f266 7bbd 0db0 a0be 81eb 47bd
00000190: 84f7 3b3e 61f8 063d ba7b bc3d d1f6 123f
000001a0: 2c5d 9abd ebff 88be 1201 023f b19a 8a3d
000001b0: f40d bc3d 595e 3c3e eb43 1f3e 3b1e 05be
000001c0: ced0 ea3d 8e96 213d c70c 2cbe 3219 97bd
000001d0: dc0d df3d 03e6 afbc 86d9 383f a500 8ebe
000001e0: d439 aebd 2b2d 94be 33ad 663e 0189 50bd
000001f0: fb56 3d3e 5b65 013d 3b25 28be e29e e9be
00000200: 35db 9c3e 3a1f 5d3e 2ee5 2dbf e733 cf3e
00000210: 301b 22be 7121 253e d8c5 c13c ef1d b63c
00000220: 7dd2 f83d 809d 40bd c3e0 dd3c 71a8 87be
00000230: e475 1bbf 870e ac3e 78b1 843e 54d8 d8bc
00000240: d727 81be 8304 8f3e dcbf 883e d7e1 74be
00000250: 8c58 83be 3015 1fbe 7366 4ebd 1090 923e
00000260: b1be 873e 378c b13d 1341 9ebe 3a9e 86be
00000270: 36fe c63e 02ae e0bc 947b 89be 5cd3 5d3d
00000280: 2a7c 543e 3ce3 b93e 88f0 94bc 2032 d8bd
00000290: 083d 853e 25e0 5f3d fab8 0cbd c635 a43d
000002a0: 4f88 9bbc e42e 6c3c a31a 22be be8b 30bc
000002b0: 1714 393d d161 08be 5afc 0d3e b8ca a33e
000002c0: 697e 09bf ed0c abbd d53e 4abe 9f22 bf3e
000002d0: 6f93 28be bf59 d73e d4e2 aabe 931f 47bd
000002e0: b479 213f 4db2 d0be 0c22 15bd 0374 7ebe
000002f0: 54f4 463e 0514 813d f77f 093f 5a4f ad3b
00000300: 3ebf 953e 4239 433f 6066 b7bd 9ffd 1dbe
00000310: eae1 c33c e877 9dbe 2ebf 86be 66d3 043e
00000320: ed5b e23c c7a8 e3bd bc2e a63d 2731 bbbe
00000330: 2da2 57be 6f26 8b3e 819d be3e e714 ac3d
00000340: 9eb0 723e c53f 24be 328c 3f3e 35a7 8f3e
00000350: 72d7 513e bf03 28bd 7c50 aabd 4788 debd
00000360: 5d41 b3be 07db d4be c529 2c3d 5588 a6be
00000370: ce04 a5be 172a ca3e 4c06 cabd b3f6 983d
00000380: 85c2 a93e 79fc 273e 563d 6fbe 91ec b83d
00000390: 55bd 89be 7b2c 6fbe 9d5f 0f3f 4ef0 6ebe
000003a0: d934 45bb a108 a53b fad3 bdbd c4f7 68bc
000003b0: 5f45 a93e 25c3 0ebe fb08 5a3e 3ef0 103f
000003c0: 9b17 75be 3df0 a03d 4d83 ac3d 9e93 89be
000003d0: fa8a c8be 4258 a9be fc92 2e3d af60 cebe
000003e0: 9d41 30be b347 893e 6808 683d 6e29 2a3e
000003f0: b656 403d da3a d73e d5ca 2b3e b3e8 133e

layer1.0.bias f4 [10]
-0.23499756 -0.046250287 0.19913599 0.11907484 0.33483127 0.16812779 0.28737834 -0.062627934
0.10972017 0.08859992
00000000: 33a3 70be f170 3dbd 4eea 4b3e 82dd f33d
00000010: 016f ab3e b129 2c3e 4123 933e 1343 80bd
00000020: f8b4 e03d e073 b53d

layer1.1.weight f4 [10]
0.7216014 0.8305734 0.81804466 0.90219986 1.2833598 1.1148642 1.0881479 0.7098381
1.013431 0.8296149
00000000: dfba 383f 75a0 543f 606b 513f 92f6 663f
00000010: 2245 a43f dfb3 8e3f 6e48 8b3f f3b7 353f
00000020: 1bb8 813f a461 543f

layer1.1.bias f4 [10]
-0.12088099 0.3961963 0.5132941 0.47634906 0.72132456 0.43210402 0.7545315 -0.17285961
0.21362273 0.27549687
00000000: 7490 f7bd 3eda ca3e 3e67 033f 06e4 f33e
00000010: baa8 383f bd3c dd3e fa28 413f 1c02 31be
00000020: ebbf 5a3e ed0d 8d3e

layer1.1.running_mean f4 [10]
2.3550456 -2.331993 -1.3303891 -0.21903865 0.49956083 0.49884975 0.27608025 1.0980338
0.630045 -1.1030023
00000000: 11b9 1640 603f 15c0 314a aabf ab4b 60be
00000010: 70c6 ff3e 3c69 ff3e 645a 8d3e 5f8c 8c3f
00000020: a14a 213f 2e2f 8dbf

layer1.1.running_var f4 [10]
0.76524323 0.48080528 0.6457763 0.6468909 0.37161967 0.49918374 0.20715156 0.2834329
0.5404892 0.304614
00000000: fbe6 433f 1c2c f63e 9851 253f a49a 253f
00000010: ef44 be3e 0395 ff3e 8a1f 543e 1e1e 913e
00000020: 805d 0a3f 5ef6 9b3e

layer1.3.weight f4 [10, 10, 3, 3]
0.0037638708 -0.06452025 -0.099801086 -0.14753595 0.081046835 -0.26835412 -0.16823073 -0.1479296
-0.094238654 -0.22718552 0.17635332 -0.19622247 0.040358786 -0.11399013 0.15855913 0.114501
-0.054619014 0.25595382 -0.15010466 0.2534534 -0.03789891 0.24645862 -0.15319748 -0.10078561
0.03178078 0.17849354 -0.15353285 0.25676355 -0.43672314 -0.14597203 0.18052092 0.14515309
-0.101515174 0.09161491 -0.029183641 0.04136925 0.07574656 0.12241887 -0.11021894 -0.8741116
0.5884813 -0.12998359 -0.29506493 -0.18284129 0.25851393 0.12963393 -0.027901784 -0.055732116
-0.09365516 0.389419 0.07041374 -0.22576654 0.25178054 0.10584424 -0.30796805 0.048285592
-0.030079419 0.5818363 -0.5964644 0.08468758 0.22599813 -0.079304144 -0.10959986 0.030636659
0.05761173 0.15077709 -0.027309561 -0.17192757 0.10041248 0.03818431 0.06973216 0.16986449
0.31340227 -0.11122238 0.008185298 -0.0791379 -0.13519302 -0.15186372 -0.13134795 0.0046219593
-0.16281442 0.5126052 -0.29719925 -0.02296881 -0.080825426 0.19508052 -0.46343574 -0.1899469
-0.021534387 -0.12280923 -0.13498946 -0.22058938 -0.05216866 0.121443495 0.054644763 0.057483282
0.052200455 -0.034099393 0.15215696 0.23706575 0.17661692 0.19580708 -0.112169586 -0.064575724
-0.11129312 -0.28000066 -0.14305018 0.018984811 -0.15628105 0.17164119 0.12599325 0.31014436
0.5378158 0.3669237 -0.010508926 0.0012305378 0.48654932 0.13244233 0.068073794 -0.032447856
-0.04019043 0.09377713 0.38478303 -0.17582116 -0.30624455 -0.29926577 -0.18073589 -0.35815284
-0.013483854 -0.16238432 0.12278621 0.23820044 0.027668757 0.06032318 0.21408366 -0.28237355
-0.22239569 0.14316323 -0.15604486 0.26714224 0.4269765 -0.15164106 -0.008083179 0.010804357
-0.071847275 -0.16360658 -0.1647539 0.24479237 0.2475177 -0.36258397 0.27163446 -0.3684994
0.13115023 -0.05553447 0.032125786 0.062406827 0.1185529 0.3505983 0.15910718 -0.15519752
0.03007297 0.03891493 0.21954973 0.38499573 0.30737212 -0.5197187 -0.07644914 -0.23079613
-0.052649263 -0.0543046 -0.4567096 0.55925524 -0.20649195 0.08357293 -0.19784686 -0.3834201
-0.34388822 -0.4506171 -0.7326514 -0.53312296 0.06627723 0.25659713 -0.21006736 0.30040637
0.04498013 -0.26535887 -0.13957363 -0.15889002 -0.46513188 -0.297564 -0.06648115 0.07615144
-0.48858216 0.19659877 0.1553544 -0.08726675 0.1127934 0.14974378 -0.2655725 -0.27161348
-0.1425974 -0.38266116 0.14708568 0.26469663 -0.04855601 -0.09450005 0.12369528 -0.4758728
0.57471603 0.28447676 -0.15575811 -0.10621076 0.22101672 -0.11525461 0.047693767 0.116206564
0.2128051 -0.020694012 0.041321214 0.06841113 -0.8598522 -0.26514128 0.004409015 -0.1019415
-0.050692223 -0.15533526 -0.1667328 0.2725987 -0.4293926 -0.545142 -0.057924952 0.083669804
-0.012084687 0.13608482 0.056618176 -0.020724487 -0.118619636 -0.54387987 0.29580578 -0.04183614
0.17411433 -0.10237619 -0.37261304 0.10544054 0.1646467 0.16864175 0.021684656 -0.2522696
0.048483964 0.17862266 -0.21682459 -0.027287863 0.16289084 0.0377371 0.1337349 0.2386431
00000000: 46ab 763b 3123 84bd 8364 ccbd aa13 17be
00000010: e2fb a53d b665 89be ad44 2cbe db7a 17be
00000020: 3200 c1bd 52a3 68be f795 343e 8bee 48be
00000030: 414f 253d a873 e9bd 535d 223e 807f ea3d
00000040: 30b8 5fbd 610c 833e 09b5 19be a5c4 813e
00000050: e33b 1bbd a65f 7c3e cddf 1cbe b068 cebd
00000060: 902c 023d 03c7 363e b737 1dbe 8376 833e
00000070: 2d9a dfbe b179 15be 7ada 383e 03a3 143e
00000080: 30e7 cfbd 99a0 bb3d 8812 efbc cd72 293d
00000090: 0321 9b3d bfb6 fa3d 78ba e1bd c7c5 5fbf
000000a0: b6a6 163f 6b1a 05be c012 97be bf3a 3bbe
000000b0: f05b 843e c2be 043e 4892 e4bc 5c47 64bd
000000c0: 47ce bfbd ed61 c73e 1435 903d 582f 67be
000000d0: 61e9 803e ddc4 d83d fdad 9dbe 1dc7 453d
000000e0: 1d69 f6bc 39f3 143f e4b1 18bf af70 ad3d
000000f0: 0e6c 673e 366a a2bd e475 e0bd bbf9 fa3c
00000100: 47fa 6b3d 4f65 1a3e 4db8 dfbc c80d 30be
00000110: 0fa5 cd3d 2767 1c3d bccf 8e3d f5f0 2d3e
00000120: 4376 a03e 8fc8 e3bd a11b 063c 0d13 a2bd
00000130: 0a70 0abe 2a82 1bbe 1480 06be ce73 973b
00000140: d3b8 26be 183a 033f 802a 98be 1629 bcbc
00000150: cd87 a5bd 30c3 473e 7347 edbe 7181 42be
00000160: e268 b0bc 6883 fbbd ad3a 0abe 2fe2 61be
00000170: ceae 55bd 5eb7 f83d 30d3 5f3d 9773 6b3d
00000180: 25d0 553d ceab 0bbd 09cf 1b3e 5dc1 723e
00000190: 11db 343e a781 483e 2bb9 e5bd 4740 84bd
000001a0: a6ed e3bd 3f5c 8fbe bf7b 12be 0986 9b3c
000001b0: 2408 20be b5c2 2f3e 6004 013e 3ecb 9e3e
000001c0: 4cae 093f 6cdd bb3e a12d 2cbc ff49 a13a
000001d0: fe1c f93e f69e 073e 466a 8b3d 0be8 04bd
000001e0: b89e 24bd 390e c03d 4802 c53e 760a 34be
000001f0: 16cc 9cbe 5d39 99be d412 39be cf5f b7be
00000200: 62eb 5cbc 1348 26be 5677 fb3d d1ea 733e
00000210: 97a9 e23c 7015 773d bf38 5b3e 4493 90be
00000220: b2bb 63be 6299 123e 39ca 1fbe dec6 883e
00000230: aa9c da3e cb47 1bbe 4f6f 04bc c204 313c
00000240: aa24 93bd 7c88 27be 3fb5 28be daaa 7a3e
00000250: 4875 7d3e 9ba4 b9be ac13 8b3e f4ab bcbe
00000260: 3f4c 063e 1d78 63bd 5496 033d 4d9e 7f3d
00000270: ddcb f23d 9f81 b33e feec 223e 19ec 1ebe
00000280: 975b f63c 4365 1f3d a5d1 603e 291e c53e
00000290: e15f 9d3e 490c 05bf 5e91 9cbd d255 6cbe
000002a0: c1a6 57bd 806e 5ebd d7d5 e9be 5a2b 0f3f
000002b0: a072 53be 4928 ab3d 5e98 4abe a44f c4be
000002c0: 1e12 b0be 49b7 e6be 0b8f 3bbf bf7a 08bf
000002d0: 5bbc 873d b360 833e e61b 57be ddce 993e
000002e0: 163d 383d 1edd 87be 64ec 0ebe 11b4 22be
000002f0: c425 eebe 4f5a 98be 4527 88bd 49f5 9b3d
00000300: 7127 fabe 3051 493e 3915 1f3e e9b8 b2bd
00000310: 3a00 e73d 6f56 193e 1ef9 87be ec10 8bbe
00000320: 0e05 12be 2aec c3be a19d 163e 5186 873e
00000330: abe2 46bd 3e89 c1bd f353 fd3d 9aa5 f3be
00000340: 9720 133f f0a6 913e 0e7f 1fbe 0785 d9bd
00000350: 3552 623e 9c0a ecbd 8a5a 433d b5fd ed3d
00000360: 95e9 593e 7d86 a9bc 6f40 293d 221b 8c3d
00000370: 461f 5cbf 99c0 87be 8079 903b b5c6 d0bd
00000380: a6a2 4fbd 3510 1fbe 01bc 2abe 0f92 8b3e
00000390: 59d9 dbbe 6d8e 0bbf b742 6dbd 135b ab3d
000003a0: dafe 45bc d259 0b3e 76e8 673d 66c6 a9bc
000003b0: daee f2bd b63b 0bbf db73 973e 5f5c 2bbd
000003c0: 074b 323e 9caa d1bd 23c7 bebe 36f1 d73d
000003d0: 2599 283e 6cb0 2c3e 05a4 b13c 7b29 81be
000003e0: 1f97 463d dce8 363e 4407 5ebe cc8a dfbc
000003f0: dbcc 263e 3892 1a3d cdf1 083e db5e 743e

layer1.3.bias f4 [10]
0.10441545 -0.02442529 -0.105129026 0.052737854 -0.3970504 0.008160916 -0.23617941 -0.08544882
0.017116057 0.10651843
00000000: c4d7 d53d 8c17 c8bc e34d d7bd a603 583d
00000010: 314a cbbe 5db5 053c 04d9 71be caff aebd
00000020: f936 8c3c 5626 da3d

layer1.4.weight f4 [10]
1.2663581 0.7267662 1.2989674 0.7679476 1.1007147 0.85697037 0.9979028 1.1240655
0.8319681 0.86697763
00000000: 0618 a23f 5a0d 3a3f 9044 a63f 3798 443f
00000010: 38e4 8c3f 6962 5b3f 8f76 7f3f 61e1 8f3f
00000020: ddfb 543f 3ff2 5d3f

layer1.4.bias f4 [10]
0.3001203 0.17323835 0.32759452 0.069885164 0.4232459 0.29484195 0.8120753 0.048343897
0.21313675 0.16820024
00000000: 5ea9 993e 6565 313e 78ba a73e f41f 8f3d
00000010: b0b3 d83e 86f5 963e 2be4 4f3f 4004 463d
00000020: 8540 5a3e af3c 2c3e

layer1.4.running_mean f4 [10]
-0.61627525 -0.47425446 -2.4726982 -2.2005527 -2.4263608 -0.24862583 -0.67099965 -1.6839678
0.68493044 -1.6300642
00000000: 37c4 1dbf 7bd1 f2be b040 1ec0 dbd5 0cc0
00000010: 7f49 1bc0 c597 7ebe a2c6 2bbf 428c d7bf
00000020: 9a57 2f3f f2a5 d0bf

layer1.4.running_var f4 [10]
4.7698884 4.257193 5.721245 5.5252743 4.1966023 4.8076243 3.86412 7.1226177
6.4583793 2.9979575
00000000: eda2 9840 ed3a 8840 7014 b740 0ccf b040
00000010: 914a 8640 0fd8 9940 be4d 7740 7cec e340
00000020: 0bab ce40 89de 3f40

layer1.6.weight f4 [10, 10, 3, 3]
0.11515816 -0.2270387 -0.25752273 -0.18390663 0.19799991 -0.8319145 0.09732249 0.04968285
-0.00052250386 -0.1774399 -0.07016251 -0.116418175 0.1530687 -0.044138733 -0.16970338 0.36264396
0.029836765 0.09634158 0.014701701 -0.34529093 -0.16455488 -0.05667531 -0.57189447 0.36473233
0.22207972 0.023908494 -0.1205176 -0.34798208 0.11084063 0.43464023 -0.39694667 -0.027915817
0.301502 -0.439989 0.07332603 0.36149576 -0.020965284 0.03474397 -0.0060750186 -0.5675259
0.30572888 -0.3273026 0.16871491 -0.1512344 -0.11726213 -0.19195983 -0.28401086 0.18838365
-0.27224594 -0.50177497 -0.08917366 -0.129942 -0.06619692 0.059230857 0.18771681 0.19970158
0.022505153 -0.5779922 0.57981056 0.09684408 0.018339844 -0.039191645 0.09674421 0.080205336
-0.13107534 0.23294638 0.2966659 0.20498782 -0.058189426 0.43584996 -0.1041983 0.1353247
0.08888873 -0.25306228 -0.113661736 -0.23332821 -0.09816469 -0.014039791 0.0023737997 0.11705694
0.27898973 0.12128314 -0.06256152 -0.50611633 0.24172658 -0.011440977 -0.39986268 0.037510306
-0.06532713 -0.38942182 0.14570677 0.009198232 -0.20688435 0.048754007 0.380505 0.14836037
0.09239136 -0.12796228 -0.011911991 0.074868605 0.20431936 0.39542243 0.1766092 0.13969837
0.106736764 0.024964944 -0.084026776 0.089613944 -0.29676917 0.20651098 -0.014808371 -0.5479551
-0.14159589 0.09113337 -0.071632914 0.22109278 0.050746173 -0.07633696 0.15070717 0.0900349
-0.16895548 -0.13267401 -0.12919058 -0.21265392 0.016805025 -0.12408031 -0.14854725 -0.22259343
0.013368714 -0.15100707 0.018852023 0.37996542 0.09147695 -0.2067231 -0.073317185 0.22619085
0.3518653 0.03384313 0.01965336 -0.17565423 -0.39409396 -0.083016 -0.017884037 -0.16027072
-0.042156678 -0.077452935 -0.121120766 -0.16488639 0.071502 -0.13279553 0.10403711 0.19591083
0.016765004 0.27350703 0.20380054 0.26474935 0.051162474 0.34635723 -0.037967652 0.076471105
0.08134238 -0.008330616 0.28878736 0.38953605 0.29369122 0.36531666 0.6989948 0.5821679
-0.020216355 0.15870135 -0.15746152 -0.11665094 0.07094676 0.24823096 -0.28909847 -0.018062998
0.32732365 0.040317696 0.33294982 0.10288527 -0.3840774 -0.2487224 -0.13871582 0.020379407
-0.86914676 0.4126921 -0.06612453 -0.091042265 -0.0620122 0.079052635 0.01311707 -0.10212377
-0.1407812 -0.043902963 0.054021236 -0.04865577 0.06415153 -0.015231803 0.068209946 0.047347274
-0.008863401 0.09887159 0.8793977 -0.14334026 -0.19670902 0.07657625 -0.15646149 0.18629979
0.19344936 -0.17021592 0.12048369 -0.2617861 -0.08779282 0.07824496 -0.09461619 -0.3004553
0.023440529 -0.078044884 0.21190128 0.10586354 -0.7467526 0.0072504403 -0.053007748 -0.27931452
0.19309081 0.18238857 -0.10315425 0.06775754 -0.29849634 0.10414084 0.024065306 0.3163092
0.07067076 0.15536843 -0.29701406 0.17415977 -0.03269381 0.19696385 -0.3330392 0.049209446
-0.23840572 -0.041005246 0.15408142 -0.14809243 0.0077999854 0.06587233 -0.34797457 -0.034566287
0.32342282 -0.36874095 0.20103933 -0.05787824 0.025926884 0.06414495 0.07684602 -0.1093605
00000000: 0bd8 eb3d d57c 68be 05da 83be 0552 3cbe
00000010: 7dc0 4a3e 59f8 54bf 0351 c73d 3e80 4b3d
00000020: a4f8 08ba ceb2 35be 5db1 8fbd a76c eebd
00000030: 0bbe 1c3e d1ca 34bd b9c6 2dbe 78ac b93e
00000040: 3b6c f43c bc4e c53d 67df 703c f9c9 b0be
00000050: 1381 28be 5f24 68bd ad67 12bf 32be ba3e
00000060: de68 633e bfdb c33c eed1 f6bd b52a b2be
00000070: 6a00 e33d 2a89 de3e 983c cbbe b6af e4bc
00000080: 785e 9a3e 3d46 e1be f52b 963d f915 b93e
00000090: 63bf abbc b14f 0e3d f310 c7bb 6149 11bf
000000a0: 7f88 9c3e 3594 a7be 9ac3 2c3e 31dd 1abe
000000b0: 2127 f0bd 1e91 44be df69 91be a5e7 403e
000000c0: d263 8bbe 5374 00bf aea0 b6bd 840f 05be
000000d0: 4092 87bd 0e9c 723d d638 403e 927e 4c3e
000000e0: ba5c b83c 4cf7 13bf 776e 143f 3056 c63d
000000f0: 713d 963c 6b87 20bd d421 c63d b242 a43d
00000100: 9d38 06be 7f89 6e3e 98e4 973e 54e8 513e
00000110: 0958 6ebd ba27 df3e eb65 d5bd 8f92 0a3e
00000120: 4b0b b63d 6191 81be 7cc7 e8bd 97ed 6ebe
00000130: 920a c9bd 2707 66bc c091 1b3b 8dbb ef3d
00000140: bed7 8e3e 4b63 f83d 4120 80bd d790 01bf
00000150: 2c87 773e f072 3bbc cdba ccbe 68a4 193d
00000160: 3bca 85bd 4c62 c7be 2834 153e 2eb4 163c
00000170: 7ed9 53be 48b2 473d 8dd1 c23e c8eb 173e
00000180: ae37 bd3d 8b08 03be 832a 43bc b654 993d
00000190: 1839 513e cf74 ca3e 0bd9 343e 170d 0f3e
000001a0: ce98 da3d 4883 cc3c 3b16 acbd 8487 b73d
000001b0: 21f2 97be 9d77 533e cf9e 72bc c946 0cbf
000001c0: 83fe 10be 22a4 ba3d 47b4 92bd 2566 623e
000001d0: 38db 4f3d 8d56 9cbd fb52 1a3e 3864 b83d
000001e0: aa02 2dbe b2db 07be 894a 04be f3c1 59be
000001f0: b1aa 893c d11d febd c51c 18be 88ef 63be
00000200: 7308 5b3c 99a1 1abe 8f6f 9a3c d48a c23e
00000210: 4458 bb3d 38af 53be 5227 96bd 939e 673e
00000220: b027 b43e 189f 0a3d 1500 a13c b4de 33be
00000230: afc6 c9be 4b04 aabd 8b81 92bc 021e 24be
00000240: 7bac 2cbd a59f 9ebd 2a0e f8bd fad7 28be
00000250: a46f 923d 8dfb 07be 6911 d53d d99c 483e
00000260: c356 893c 1d09 8c3e 17b1 503e 3a8d 873e
00000270: be8f 513d bc55 b13e f883 1bbd e29c 9c3d
00000280: d596 a63d 237d 08bc f0db 933e 4571 c73e
00000290: b25e 963e c90a bb3e 53f1 323f f508 153f
000002a0: c59c a5bc 9b82 223e 983d 21be b0e6 eebd
000002b0: 894c 913d 4230 7e3e b704 94be daf8 93bc
000002c0: f796 a73e 2b24 253d 6678 aa3e 83b5 d23d
000002d0: cba5 c4be 16b1 7ebe 850b 0ebe b7f2 a63c
000002e0: 6780 5ebf 614c d33e 4c6c 87bd 5e74 babd
000002f0: 8100 7ebd 59e6 a13d fbe8 563c 4426 d1bd
00000300: f228 10be 98d3 33bd 5f45 5d3d 464b 47bd
00000310: e161 833d d08e 79bc a8b1 8b3d 37ef 413d
00000320: cc37 11bc 307d ca3d 3520 613f cac7 12be
00000330: 176e 49be 02d4 9c3d 7137 20be 5fc5 3e3e
00000340: 9717 463e 154d 2ebe 27c0 f63d d408 86be
00000350: b9cc b3bd e53e a03d 22c6 c1bd 47d5 99be
00000360: 5a06 c03c ffd5 9fbd a6fc 583e fcce d83d
00000370: 2e2b 3fbf 1a95 ed3b a71e 59bd 5002 8fbe
00000380: 99b9 453e 12c4 3a3e 8942 d3bd 77c4 8a3d
00000390: 83d4 98be cb47 d53d 9b24 c53c 48f3 a13e
000003a0: d5bb 903d e718 1f3e 3a12 98be f056 323e
000003b0: f2e9 05bd e4b0 493e 1d84 aabe d88f 493d
000003c0: a120 74be 1ef5 27bd 85c7 1d3e 8ba5 17be
000003d0: 0597 ff3b 12e8 863d b929 b2be 6195 0dbd
000003e0: ad97 a53e 9dcb bcbe 41dd 4d3e bc11 6dbd
000003f0: 9e64 d43c 6d5e 833d 7261 9d3d 66f8 dfbd

layer1.6.bias f4 [10]
-0.21891768 0.101248 -0.5549709 -0.09133934 -0.14452101 0.068250075 0.1776276 -0.35421604
0.07633931 0.15536615
00000000: f52b 60be 1d5b cf3d 9312 0ebf 1f10 bbbd
00000010: 51fd 13be b2c6 8b3d 02e4 353e ce5b b5be
00000020: c957 9c3d 4e18 1f3e

layer1.7.weight f4 [10]
1.2891846 0.8429983 1.304213 1.1196817 1.0547184 0.803997 0.8701118 0.99935293
1.1279584 0.79525393
00000000: 0004 a53f bdce 573f 74f0 a63f bb51 8f3f
00000010: 0301 873f bfd2 4d3f a6bf 5e3f 98d5 7f3f
00000020: f160 903f c395 4b3f

layer1.7.bias f4 [10]
0.5087404 0.051249232 0.27866688 -0.1977646 0.14306942 0.33708838 0.09642481 0.17983669
0.52282 0.48050386
00000000: d03c 023f b7ea 513d 6dad 8e3e ce82 4abe
00000010: ca80 123e d996 ac3e 5f7a c53d 1c27 383e
00000020: 88d7 053f 9a04 f63e

layer1.7.running_mean f4 [10]
-1.8749166 1.7725726 -1.5571375 -3.155534 -1.8826069 -1.278658 -1.747213 -1.828548
-2.3714044 -2.326052
00000000: 44fd efbf a9e3 e23f 4850 c7bf 45f4 49c0
00000010: 43f9 f0bf 11ab a3bf ada4 dfbf dc0d eabf
00000020: 17c5 17c0 09de 14c0

layer1.7.running_var f4 [10]
5.3303456 3.6755245 6.0463624 6.54999 5.742582 3.169596 3.6691673 5.9550676
5.847344 2.68429
00000000: 3192 aa40 cb3b 6b40 cd7b c140 8599 d140
00000010: 3bc3 b740 a9da 4a40 a3d3 6a40 ea8f be40
00000020: 711d bb40 68cb 2b40

layer2.0.weight f4 [30, 10, 3, 3]
-0.07765279 -0.11874094 0.29656664 -0.14997622 0.18187432 0.39980584 0.063729085 0.07396927
0.24023718 -0.26373723 -0.54088545 -0.09365879 -0.4019266 -0.16818103 0.2675949 0.12186793
-0.095986724 0.17846976 0.015564724 -0.07313277 -0.4562741 0.12353955 -0.55619186 -0.6208719
-0.11065517 -0.4532624 0.17009693 -0.03728326 -0.15378486 -0.1988153 -0.21760118 -0.38836846
-0.25073743 -0.44087854 -0.19415188 0.07404336 -0.07250938 -0.06352899 -0.013399992 -0.08561043
-0.18936321 -0.001199097 0.39859188 0.1304383 0.1494336 0.21109813 0.36901855 0.36840698
-0.23520783 -0.035592716 -0.07075152 -0.18449314 0.24938148 -0.23690231 -0.06795923 -0.37983868
-0.09116014 -0.28818464 -0.28337482 0.02854768 -0.13249114 0.2455154 0.75395834 -0.095412396
-0.22828752 0.01682247 -0.22193187 -0.3282312 0.046667393 -0.36929756 -0.3773726 0.12252556
0.07311526 0.09190474 0.13274676 -0.091558225 -0.027436137 0.14980106 -0.0924674 0.04592555
0.14944677 0.32709783 0.23130094 -0.113153875 -0.15363036 -0.32238436 -0.177074 -0.48881757
-0.43109038 -0.20985709 -0.078441106 -0.505622 -0.3797034 0.12037863 0.023562176 -0.15271796
0.16086471 -0.09487398 -0.18668891 0.24811342 -0.10991328 -0.43593475 0.20545714 -0.18310411
-0.51551104 0.02901787 0.049832787 0.120090365 -0.20365196 0.09994109 0.09555476 -0.1947272
-0.16249302 0.050601345 -0.13846903 -0.058985755 0.22921272 0.24579203 0.20170875 -0.24681142
0.54617983 0.62340605 0.07260244 0.2123855 0.21763287 0.22326599 0.0033063658 -0.2353448
-0.028039986 0.14699809 0.20014086 -0.059355877 0.083478324 0.06922307 0.15991327 -0.117982835
-0.1805094 0.30974984 -0.13781728 -0.099951744 -0.09760391 -0.2546976 0.0011477565 -0.19817379
-0.18577352 -0.360128 -0.13498738 0.40395686 -0.110844366 0.1446946 0.4461053 0.073732175
0.046665773 -0.37630057 -0.18614522 -0.0057005477 -0.63948786 -0.38139403 -0.2304044 -0.51687855
-0.2961512 0.07418533 -0.22016227 -0.1564485 -0.3577722 -0.09143232 -0.10511831 -0.4253873
0.063466676 -0.10689037 -0.39512062 -0.06255289 -0.14656013 0.10496025 -0.24853127 -0.1610831
0.041770127 -0.1000762 0.16632214 -0.021045757 0.06707075 0.062432624 -0.029649625 -0.16124469
0.02934892 -0.13053595 0.08257102 -0.08511195 0.059135262 -0.25121737 -0.14689253 -0.2211949
0.22104505 0.27650285 0.18549341 0.05640542 0.017930578 -0.18048453 -0.20093654 0.19367512
0.07424824 0.05679438 -0.32193598 -0.0906288 0.017203195 0.36322144 0.03380301 -0.12755854
-0.15459552 -0.18704069 0.5505743 0.50219876 0.19108728 -0.5012614 -0.53247637 -0.26852456
-0.45705792 -0.37508938 -0.18817408 -0.0010944391 0.42314568 0.1997944 0.20516182 0.09836741
-0.19296634 -0.3277944 -0.3105216 -0.10189906 0.4214384 0.45075148 0.42616573 -0.12523913
-0.22105229 -0.24934936 0.1742021 0.013775304 0.18143047 0.33091998 0.12739216 0.16344461
-0.3409759 -0.492634 -0.049481936 -0.2300143 -0.2219225 -0.09709905 0.09990632 0.102371596
-0.035358835 -0.09991572 0.1443867 0.19242965 0.13712287 0.0043653576 -0.14214368 -0.81162715
00000000: 6d08 9fbd 732e f3bd 95d7 973e 5e93 19be
00000010: 433d 3a3e 5ab3 cc3e 6584 823d 337d 973d
00000020: bc00 763e 9108 87be 7877 0abf 2ed0 bfbd
00000030: 53c9 cdbe a637 2cbe 3302 893e e595 f93d
00000040: b094 c4bd c7c0 363e 2f03 7f3c a2c6 95bd
00000050: c29c e9be 4e02 fd3d 9762 0ebf 76f1 1ebf
00000060: 2e9f e2bd 0212 e8be e42d 2e3e 55b6 18bd
00000070: c779 1dbe 3d96 4bbe d8d2 5ebe 3bd8 c6be
00000080: a860 80be d5ba e1be c0cf 46be 0ca4 973d
00000090: cc7f 94bd 7d1b 82bd a48b 5bbc 8554 afbd
000000a0: 6ee8 41be 052b 9dba 3c14 cc3e 9e91 053e
000000b0: 1f05 193e 1c2a 583e 00f0 bc3e d79f bc3e
000000c0: 52da 70be abc9 11bd 2ce6 90bd c5eb 3cbe
000000d0: dc5d 7f3e 8596 72be 352e 8bbd 377a c2be
000000e0: 2bb2 babd f08c 93be 8116 91be d3dc e93c
000000f0: c2ab 07be 6468 7b3e 6a03 413f 9367 c3bd
00000100: 34c4 69be 47cf 893c 1c42 63be eb0d a8be
00000110: 4f26 3f3d 9214 bdbe fb36 c1be aeee fa3d
00000120: 74bd 953d 8d38 bc3d c4ee 073e e182 bbbd
00000130: c0c1 e0bc 7365 193e 8c5f bdbd 6e1c 3c3d
00000140: 9308 193e 5e79 a73e 27da 6c3e 38bd e7bd
00000150: 4751 1dbe 900f a5be e352 35be 4c46 fabe
00000160: e1b7 dcbe c7e4 56be bba5 a0bd 7270 01bf
00000170: 7c68 c2be 1289 f63d 7705 c13c 1962 1cbe
00000180: b8b9 243e 4a4d c2bd 612b 3fbe 7211 7e3e
00000190: 371a e1bd d732 dfbe 5b63 523e a57f 3bbe
000001a0: 88f8 03bf e2b6 ed3c 771d 4c3d f0f1 f53d
000001b0: 248a 50be eaad cc3d 37b2 c33d 9166 47be
000001c0: 9264 26be 5b43 4f3d d3ca 0dbe 0c9b 71bd
000001d0: bdb6 6a3e e8b0 7b3e bd8c 4e3e 22bc 7cbe
000001e0: 71d2 0b3f 8a97 1f3f 97b0 943d 967b 593e
000001f0: 27db 5e3e d79f 643e 9daf 583b 3afe 70be
00000200: 1db4 e5bc ab86 163e baf1 4c3e 261f 73bd
00000210: aff6 aa3d d3c4 8d3d 4ec0 233e fca0 f1bd
00000220: 75d7 38be 8897 9e3e f91f 0dbe 80b3 ccbd
00000230: 8fe4 c7bd b967 82be 5170 963a 12ee 4abe
00000240: 6a3b 3ebe b262 b8be 223a 0abe 6fd3 ce3e
00000250: 5f02 e3bd d22a 143e ea67 e43e e500 973d
00000260: 9c24 3f3d 78aa c0be da9c 3ebe a9cb babb
00000270: 7ab5 23bf 1446 c3be 22ef 6bbe 2752 04bf
00000280: 21a1 97be 7aee 973d 3872 61be 0934 20be
00000290: eb2d b7be de40 bbbd 4548 d7bd 5dcc d9be
000002a0: d1fa 813d 57e9 dabd 404d cabe bb1b 80bd
000002b0: dc13 16be 66f5 d63d fb7e 7ebe f8f2 24be
000002c0: 2717 2b3d c0f4 ccbd 5a50 2a3e 2768 acbc
000002d0: 645c 893d 5ab9 7f3d c5e3 f2bc 541d 25be
000002e0: 256d f03c 37ab 05be ff1a a93d 2d4f aebd
000002f0: d137 723d 909f 80be ff6a 16be ea80 62be
00000300: a259 623e c891 8d3e fcf1 3d3e 5f09 673d
00000310: 26e3 923c f0d0 38be 4fc2 4dbe c552 463e
00000320: 760f 983d 39a1 683d cbd4 a4be 989b b9bd
00000330: b7ed 8c3c 29f8 b93e 0675 0a3d b59e 02be
00000340: 4a4e 1ebe 9887 3fbe 70f2 0c3f 1990 003f
00000350: 62ac 433e ab52 00bf 5f50 08bf 0d7c 89be
00000360: 7f03 eabe b70b c0be b5b0 40be 4873 8fba
00000370: 8da6 d83e e796 4c3e f115 523e da74 c93d
00000380: f898 45be abd4 a7be b0fc 9ebe 74b0 d0bd
00000390: c6c6 d73e e6c8 e63e 6532 da3e b03e 00be
000003a0: 885b 62be 7055 7fbe 0962 323e d0b1 613c
000003b0: e9c8 393e 586e a93e 1773 023e 065e 273e
000003c0: 6594 aebe 863a fcbe 92ad 4abd de88 6bbe
000003d0: a73f 63be dedb c6bd af9b cc3d 33a8 d13d
000003e0: 6dd4 10bd 9da0 ccbd 1bda 133e 470c 453e
000003f0: f069 0c3e 460b 8f3b 1d8e 11be ccc6 4fbf

layer2.0.bias f4 [30]
0.10151277 -0.116269216 0.13531323 -0.24390112 0.09197772 0.2770794 -0.060886446 -0.0842076
-0.08369063 0.0093877865 0.07035653 -0.09228678 -0.0008986593 0.10940985 -0.051046897 0.07416165
0.1395279 0.023112334 -0.07862987 -0.11193791 -0.09267948 -0.054194707 -0.025528636 -0.0027630364
-0.1314184 0.124225594 0.26522815 -0.048900783 0.050626475 0.073623165
00000000: ede5 cf3d 8e1e eebd 8d8f 0a3e 37c1 79be
00000010: d15e bc3d 5add 8d3e 1164 79bd 0975 acbd
00000020: fe65 abbd 3bcf 193c 1617 903d da00 bdbd
00000030: 0194 6bba 4512 e03d 8d16 51bd 10e2 973d
00000040: 67e0 0e3e 1456 bd3c b308 a1bd b43f e5bd
00000050: bdce bdbd 45fb 5dbd 6e21 d1bc 0f14 35bb
00000060: 8c92 06be fd69 fe3d fccb 873e 304c 48bd
00000070: b55d 4f3d bec7 963d

layer2.1.weight f4 [30]
0.8779465 0.8576499 1.3048548 1.0999199 0.9970981 1.1836892 0.75542593 1.1088349
1.1749965 1.2089134 0.9033167 0.80403286 0.92865145 1.215186 0.78610593 0.9317659
1.004143 0.94063723 0.8768235 0.9367473 1.2118597 1.0417135 1.4625298 1.148283
1.076824 1.0014962 1.0008458 0.8525533 1.2477965 0.8795664
00000000: 1ac1 603f f28e 5b3f 7b05 a73f 2dca 8c3f
00000010: d241 7f3f 2183 973f 9863 413f 4dee 8d3f
00000020: 4966 963f adbd 9a3f c33f 673f 19d5 4d3f
00000030: 1abc 6d3f 378b 9b3f 3d3e 493f 3688 6e3f
00000040: c287 803f 9acd 703f 8177 603f acce 6f3f
00000050: 381e 9b3f de56 853f 2d34 bb3f f0fa 923f
00000060: 5ed5 893f 0731 803f b71b 803f ef40 5a3f
00000070: ccb7 9f3f 432b 613f

layer2.1.bias f4 [30]
-0.107278444 -0.34383664 -0.13794251 -0.23554032 -0.45433074 -0.5610301 -0.22944652 -0.34019306
-0.2521283 -0.26252058 -0.48476186 -0.26260296 -0.3368265 -0.34243387 -0.14473115 -0.13313021
-0.23872596 -0.2079732 -0.37742034 -0.12544878 -0.0579948 -0.18772908 -0.19525585 -0.3149821
-0.21807252 -0.29781625 -0.2327857 -0.4179608 -0.19945394 -0.5704241
00000000: cdb4 dbbd 5b0b b0be cd40 0dbe 7b31 71be
00000010: 0a9e e8be ab9f 0fbf 07f4 6abe c92d aebe
00000020: f616 81be 1969 86be b532 f8be e573 86be
00000030: 8674 acbe 7e53 afbe 6734 14be 4953 08be
00000040: 9474 74be edf6 54be 3d3d c1be a575 00be
00000050: f58b 6dbd 0d3c 40be 26f1 47be 5545 a1be
00000060: 674e 5fbe 5f7b 98be 605f 6ebe f5fe d5be
00000070: a73d 4cbe 5007 12bf

layer2.1.running_mean f4 [30]
-2.1776404 -3.4798539 -0.1439162 -2.0383964 2.4920816 -0.28871924 0.81344384 -0.19740364
-2.327099 -3.0664127 1.7216765 -0.44062293 -2.2879171 -1.5993612 0.68427837 -2.1001968
-0.88260496 1.2438254 0.9252123 -1.0852501 -0.032019995 -0.71177715 -0.41276366 -1.2641267
-1.3396461 -0.8637971 -2.4048533 -2.7583654 -1.2639939 -0.28371477
00000000: 765e 0bc0 edb5 5ec0 c55e 13be 1675 02c0
00000010: 447e 1f40 02d3 93be db3d 503f 2e24 4abe
00000020: 31ef 14c0 1b40 44c0 e55f dc3f 5499 e1be
00000030: 3c6d 12c0 deb7 ccbf de2c 2f3f a069 06c0
00000040: 66f2 61bf ac35 9f3f b7da 6c3f 7ae9 8abf
00000050: 6627 03bd 0737 36bf c255 d3be e7ce a1bf
00000060: 8679 abbf cf21 5dbf 1ee9 19c0 0f89 30c0
00000070: 8dca a1bf 1043 91be

layer2.1.running_var f4 [30]
3.6534169 4.827392 8.515467 7.9053288 3.9390862 4.0670757 2.5740573 6.470788
9.355717 6.4368773 4.446884 3.6158931 5.3909807 5.4739084 5.418761 3.014263
9.584729 5.9043756 5.9509807 3.3160145 6.225005 4.058657 10.946132 6.171461
3.3041365 2.9688034 3.28265 6.4772596 6.37067 4.016156
00000000: 95d1 6940 ff79 9a40 5a3f 0841 74f8 fc40
00000010: fd19 7c40 7c25 8240 5bbd 2440 b210 cf40
00000020: 04b1 1541 e6fa cd40 e04c 8e40 cb6a 6740
00000030: ea82 ac40 422a af40 7d66 ad40 afe9 4040
00000040: 0d5b 1941 a5f0 bc40 6f6e be40 9539 5440
00000050: 3e33 c740 85e0 8140 5b23 2f41 9c7c c540
00000060: f976 5340 e000 3e40 f016 5240 b645 cf40
00000070: 87dc cb40 5a84 8040

layer2.3.weight f4 [30, 30, 3, 3]
0.23757923 0.28277785 0.10859751 0.3482133 0.3816229 0.22341749 0.15353422 0.2377562
0.059063163 0.23676184 0.37640777 0.0618757 -0.13485968 -0.34432474 -0.11019273 0.42619714
-0.25657642 -0.34041816 -0.13531722 -0.16395006 -0.15397874 0.07429087 0.10897735 -0.047588803
-0.2037172 -0.30840704 -0.0094287535 -0.14527702 0.37061542 0.17075595 -0.26382276 0.08976568
0.0562209 0.07268278 0.29377338 0.07643455 -0.29548088 -0.14491886 0.03570745 -0.30756325
0.011323964 -0.031185001 0.20123565 -0.07161551 -0.21458624 0.24498273 -0.034383286 -0.13232084
-0.007976997 -0.29699138 0.20139253 -0.030349366 0.21610272 0.38760722 -0.5045956 -0.20100608
-0.042983916 -0.37265277 -0.20213862 0.12201568 0.15405788 0.048805177 0.28157124 0.12120333
0.18877882 0.016663035 0.009003304 -0.044206433 -0.10411578 0.064112194 0.06168489 0.09997491
0.24840568 0.22139655 0.014371688 0.03344844 0.15288988 -0.11226358 0.312501 0.050096955
-0.02693372 0.16669334 -0.17985912 -0.38925892 0.10904299 -0.088861115 -0.3381992 0.433811
0.2508673 -0.071955465 -0.35953918 -0.16814908 -0.5316163 0.056915198 0.04148567 -0.1304054
-0.2382055 -0.25768423 -0.33709362 0.12578146 -0.2033262 -0.29532817 0.2644604 0.14514144
-0.024878282 0.31346607 0.0022543613 -0.034392707 -0.13252106 0.11359657 -0.22447132 -0.25107816
0.22286835 -0.06699782 -0.58549225 0.13473326 -0.10869565 -0.64743865 -0.2470402 0.2570887
-0.39318246 0.20843543 -0.0050131995 -0.18068112 -0.3210932 -0.16599965 -0.10135965 -0.105956875
-0.17481546 -0.20835993 -0.10682029 -0.24187905 -0.091229714 -0.13703519 -0.2631122 0.46966445
0.17569926 -0.13907076 -0.23044968 -0.107167795 -0.09269747 0.32418677 0.40925476 0.07596764
0.306213 0.32045788 0.6282514 -0.20807342 -0.03883585 0.62019414 -0.32508728 -0.41411996
0.13826826 0.05215148 0.47662964 0.32749018 -0.3477528 0.07644586 0.035850566 -0.5255504
-0.16993971 0.07896645 -0.005661592 -0.7180811 -0.74784094 -0.35544917 -0.41896284 -0.19881475
-0.30825207 -0.3751998 -0.24552357 0.25985408 0.11371552 0.37317282 -0.11880187 0.1554415
0.112921976 -0.16798893 -0.12601645 0.10252591 -0.6209404 -0.26262546 0.44164258 -0.7634855
-0.36775073 0.55374056 -0.8461726 -0.10591534 0.17847088 -0.10534828 -0.14963038 -0.25933504
0.10743567 0.1408183 -0.26044717 0.044997465 0.061293233 -0.49056616 -0.39826155 0.061634414
0.39596346 -0.4912072 -0.10903069 0.29853466 -0.5532448 -0.22010237 0.14482431 0.19504157
0.11595062 0.14023982 0.016327893 0.27224237 0.017806012 -0.105966605 0.12792708 -0.12164017
0.15955138 0.27505788 0.13336517 -0.11665863 0.17196059 -0.11143157 0.12735505 0.07462068
0.044350125 -0.16767131 -0.08996139 -0.111083046 -0.3098138 0.16993833 0.25060004 0.26397356
0.3016074 0.08123519 -0.033652015 -0.03825569 -0.1404064 0.052777268 0.04993898 0.11900952
-0.06917245 0.04725551 -0.18968302 -0.0020588837 0.15683882 0.11383901 0.43781278 0.34211686
0.19246623 0.1271396 0.14583045 0.17746927 -0.48806044 0.102675386 0.14838928 -0.39618674
00000000: f847 733e 42c8 903e 5f68 de3d 0349 b23e
00000010: 1464 c33e 8ec7 643e 1338 1d3e 5c76 733e
00000020: 37ec 713d b271 723e 85b8 c03e 6071 7d3d
00000030: a818 0abe 554b b0be baac e1bd 8336 da3e
00000040: fc5d 83be 4a4b aebe 9990 0abe 86e2 27be
00000050: 9aac 1dbe d025 983d 842f df3d 7aec 42bd
00000060: 3e9b 50be 87e7 9dbe 0f7b 1abc 80c3 14be
00000070: 4ec1 bd3e a6da 2e3e c713 87be 12d7 b73d
00000080: e347 663d b6da 943d 7769 963e b889 9c3d
00000090: 4549 97be 9c65 14be fa41 123d ee78 9dbe
000000a0: 2688 393c b077 ffbc b810 4e3e 27ab 92bd
000000b0: 7fbc 5bbe c1dc 7a3e 7dd5 0cbd 1d7f 07be
000000c0: f3b1 02bc 410f 98be d839 4e3e 3c9f f8bc
000000d0: 084a 5d3e 7474 c63e 2d2d 01bf 8ad4 4dbe
000000e0: e70f 30bd 58cc bebe 6dfd 4ebe 5be3 f93d
000000f0: 59c1 1d3e f0e7 473d 1b2a 903e 7439 f83d
00000100: 3c4f 413e eb80 883c 9882 133c ce11 35bd
00000110: a73a d5bd 414d 833d 4ca9 7c3d a5bf cc3d
00000120: 0f5e 7e3e c7b5 623e 3a77 6b3c 3b01 093d
00000130: 2a8f 1c3e 73ea e5bd 2200 a03e 7732 4d3d
00000140: 1ba4 dcbc a9b1 2a3e fd2c 38be f24c c7be
00000150: ee51 df3d d1fc b5bd 7228 adbe 7a1c de3e
00000160: ae71 803e 635d 93bd 8515 b8be 462f 2cbe
00000170: 0118 08bf e91f 693d e1ec 293d fe88 05be
00000180: 25ec 73be 30ef 83be 8997 acbe dbcc 003e
00000190: be34 50be 4135 97be 5b67 873e f59f 143e
000001a0: 8acd cbbc a07e a03e e8bd 133b 5edf 0cbd
000001b0: 9ab3 07be 52a5 e83d cfdb 65be 518d 80be
000001c0: 9a37 643e 2736 89bd d2e2 15bf 84f7 093e
000001d0: d39b debd 8abe 25bf 1bf8 7cbe 21a1 833e
000001e0: 364f c9be 1970 553e c445 a4bb 7904 39be
000001f0: 5466 a4be d0fb 29be a695 cfbd ebff d8bd
00000200: d302 33be 4e5c 55be 99c4 dabd 24af 77be
00000210: a5d6 babd f452 0cbe a4b6 86be dc77 f03e
00000220: 82ea 333e 9168 0ebe 00fb 6bbe ca7a dbbd
00000230: 2cd8 bdbd cffb a53e d789 d13e ec94 9b3d
00000240: f3c7 9c3e 0e13 a43e 15d5 203f 3311 55be
00000250: 5712 1fbd 0bc5 1e3f d771 a6be 8807 d4be
00000260: 3296 0d3e ca9c 553d cd08 f43e cbac a73e
00000270: a80c b2be a68f 9c3d 0bd8 123d 798a 06bf
00000280: ad04 2ebe 2ab9 a13d e084 b9bb 2ad4 37bf
00000290: 8172 3fbf 6ffd b5be 4c82 d6be 1896 4bbe
000002a0: 37d3 9dbe 301a c0be 886a 7bbe 980b 853e
000002b0: afe3 e83d 8210 bf3e 654e f3bd 0e2c 1f3e
000002c0: a343 e73d 4a05 2cbe 750a 01be 1bf9 d13d
000002d0: f3f5 1ebf d876 86be fa1e e23e c973 43bf
000002e0: d349 bcbe f1c1 0d3f c49e 58bf 24ea d8bd
000002f0: 12c1 363e d7c0 d7bd b538 19be 90c7 84be
00000300: 3c07 dc3d ac32 103e 5559 85be 434f 383d
00000310: 9d0e 7b3d 7d2b fbbe f0e8 cbbe 5e74 7c3d
00000320: b9bb ca3e 837f fbbe 7b4b dfbd 89d9 983e
00000330: 74a1 0dbf 8462 61be d34c 143e fab8 473e
00000340: 8577 ed3d 079b 0f3e 13c2 853c 5a63 8b3e
00000350: eadd 913c 0505 d9bd 51ff 023e 7b1e f9bd
00000360: 7061 233e 63d4 8c3e e190 083e b8ea eebd
00000370: 7016 303e 3c36 e4bd 5d69 023e bad2 983d
00000380: 7aa8 353d 07b2 2bbe ad3d b8bd 827f e3bd
00000390: ea9f 9ebe 5004 2e3e a64e 803e 8b27 873e
000003a0: 496c 9a3e a35e a63d b2d6 09bd 00b2 1cbd
000003b0: b2c6 0fbe fa2c 583d d18c 4c3d 43bb f33d
000003c0: 49aa 8dbd fe8e 413d 443c 42be 56ee 06bb
000003d0: 5b9a 203e 6d24 e93d ff28 e03e f129 af3e
000003e0: de15 453e e230 023e 9454 153e 81ba 353e
000003f0: 0fe3 f9be 7947 d23d 5cf3 173e fdd8 cabe

layer2.3.bias f4 [30]
0.022357725 -0.053861566 -0.0020451816 0.081042364 0.072483696 -0.059315424 -0.08828495 -0.022913262
-0.0597058 -0.049200412 0.012719397 -0.026695104 -0.05616657 -0.074847825 -0.054613665 -0.055726245
-0.074860275 -0.026152572 -0.0638179 0.0808884 -0.05713695 0.025674598 0.016549267 0.041776754
0.010029682 -0.009219574 -0.09568247 0.037611056 0.026323114 0.032086603
00000000: 8c27 b73c f29d 5cbd 7408 06bb 8af9 a53d
00000010: 5572 943d bbf4 72bd bdce b4bd 98b4 bbbc
00000020: 128e 74bd 5f86 49bd 0565 503c b1af dabc
00000030: eb0e 66bd d149 99bd 94b2 5fbd 3441 64bd
00000040: 5850 99bd eb3d d6bc f6b2 82bd d1a8 a53d
00000050: 6f08 6abd 8953 d23c 5492 873c 1a1e 2b3d
00000060: 8953 243c b20d 17bc 2cf5 c3bd 0d0e 1a3d
00000070: 92a3 d73c 3e6d 033d

layer2.4.weight f4 [30]
1.0833045 0.96088576 0.952482 0.8564776 1.0508461 1.1486572 0.9682129 1.1307522
1.1307789 0.8800034 1.1543897 0.9514552 1.0931318 1.2397534 1.1085888 0.9839246
1.0146691 1.1206563 1.0116243 0.87987405 0.9660087 1.0021085 1.1254557 1.1579925
0.9639431 0.9236003 0.7872177 0.8705004 1.0236152 1.0709357
00000000: b9a9 8a3f 9cfc 753f dcd5 733f 1e42 5b3f
00000010: 2082 863f 3307 933f cddc 773f 7dbc 903f
00000020: 5dbd 903f e747 613f 0bc3 933f 9192 733f
00000030: beeb 8b3f 3db0 9e3f 3de6 8d3f 7ce2 7b3f
00000040: ade0 813f aa71 8f3f e87c 813f 6d3f 613f
00000050: 594c 773f 1745 803f ef0e 903f 1939 943f
00000060: fac4 763f 1271 6c3f 1987 493f 1dd9 5e3f
00000070: d305 833f 6c14 893f

layer2.4.bias f4 [30]
-0.35662967 -0.45485827 -0.35008144 -0.57908416 -0.389813 -0.3326907 -0.4054227 -0.13753402
-0.12850237 -0.17850883 -0.26837376 -0.2481681 -0.33560753 0.029890563 -0.4050885 -0.5197459
-0.44629458 -0.35247242 -0.11816544 -0.12083732 -0.3192325 -0.2900037 0.034164555 -0.22423242
-0.2138518 -0.52254874 -0.04245491 -0.3021184 -0.19529212 -0.49254483
00000000: 2a98 b6be 2fe3 e8be e03d b3be dc3e 14bf
00000010: 9295 c7be 6f56 aabe 9093 cfbe b8d5 0cbe
00000020: 2096 03be 05cb 36be 4968 89be c71f 7ebe
00000030: c0d4 abbe 0edd f43c c367 cfbe 110e 05bf
00000040: b980 e4be 4477 b4be b900 f2bd 8f79 f7bd
00000050: 7172 a3be 5d7b 94be 22f0 0b3d 2f9d 65be
00000060: f7fb 5abe c1c5 05bf 33e5 2dbd 43af 9abe
00000070: a8fa 47be d62e fcbe

layer2.4.running_mean f4 [30]
-1.0334231 -0.5079579 -2.689527 1.3606459 -1.9133176 -1.9751488 2.8972194 -3.621006
-2.5288193 -1.0735165 -2.7983365 -1.1218767 -3.5141735 -4.316303 -3.0273964 -1.0886263
-1.1676203 -2.563993 -3.546442 -1.4842721 -3.5237522 -2.7013545 -4.487364 -2.9172158
-2.9409897 0.42370299 0.5924058 1.4181545 -2.7159066 -3.4634168
00000000: 3547 84bf 8709 02bf 3621 2cc0 a529 ae3f
00000010: 97e7 f4bf add1 fcbf 0b6c 3940 90be 67c0
00000020: 2dd8 21c0 fd68 89bf f217 33c0 a899 8fbf
00000030: 38e8 60c0 271f 8ac0 ddc0 41c0 1b58 8bbf
00000040: 9574 95bf 7618 24c0 e8f8 62c0 a1fc bdbf
00000050: 2885 61c0 fee2 2cc0 7c98 8fc0 aab3 3ac0
00000060: 2d39 3cc0 99ef d83e e8a7 173f 1686 b53f
00000070: 6ad1 2dc0 9fa8 5dc0

layer2.4.running_var f4 [30]
7.272645 7.730645 7.0863934 6.99316 9.328084 8.632156 11.698981 13.827305
11.133861 7.2605057 9.297764 7.016271 8.573057 13.534202 7.396515 7.0077105
8.672134 9.134283 11.414421 10.820769 9.029889 10.4492445 13.902891 11.762501
8.847663 6.39508 9.929075 7.976719 10.597938 9.474481
00000000: 82b9 e840 7261 f740 bcc3 e240 f7c7 df40
00000010: d53f 1541 501d 0a41 072f 3b41 a43c 5d41
00000020: 4b24 3241 1056 e840 a4c3 1441 4b85 e040
00000030: 3e2b 0941 178c 5841 40b0 ec40 2a3f e040
00000040: 10c1 0a41 0626 1241 78a1 3641 df21 2d41
00000050: 6d7a 1041 1b30 2741 3e72 5e41 3433 3c41
00000060: 0790 0d41 7fa4 cc40 7edd 1e41 4841 ff40
00000070: 2791 2941 7997 1741

layer2.7.weight f4 [30, 30, 3, 3]
-0.100457504 0.13627633 0.19339307 -0.3715157 -0.14818595 -0.36793885 -0.12970608 -0.21127534
0.036083862 -0.5621557 -0.090107374 -0.1704201 -0.21396287 -0.21160193 0.14675932 -0.111046575
0.02199614 -0.13434033 0.054366667 -0.0031638807 -0.31641904 0.29804352 -0.1252458 0.13004452
0.26231417 -0.0100572435 0.058664627 -0.009341797 0.10358941 -0.18922988 0.26332864 -0.026383806
-0.044452604 -0.07457244 -0.08497306 -0.10573574 -0.35359237 -0.35047042 -0.083376065 -0.07878961
-0.158883 -0.2090779 -0.015523243 0.15299734 -0.19890048 0.62989545 0.6343086 0.2903009
-0.0063057467 -0.053306084 -0.0019093138 0.5544264 0.39173007 0.13298328 -0.027314868 -0.1256341
0.0038832533 0.3284943 0.08256568 0.085301094 -0.06141345 0.2667571 0.15034433 -0.07055242
0.051763475 0.171542 -0.4524916 -0.46390063 -0.19314185 0.23404968 -0.19365515 -0.27163523
0.14079323 -0.14409907 -0.2984246 0.0754544 -0.2034719 -0.13037361 -0.37462994 -0.32486194
-0.20419307 0.0259521 -0.1882457 0.1723545 -0.2240013 -0.14433122 0.10206997 -0.014326671
0.016160386 0.046871085 -0.3254433 -0.14789452 -0.5624951 -0.60550725 -0.002665697 -0.27487347
-0.051454548 -0.09080137 -0.1955761 -0.015975505 -0.09389677 -0.031042947 -0.07222143 -0.06638182
0.08900564 -0.102839366 0.07397213 0.38016358 -0.26919746 -0.036577053 -0.13861933 -0.010016536
0.14768751 0.12440223 -0.33759433 0.073197536 -0.23764615 0.4197972 0.39072764 0.2364863
0.27938786 0.26390678 0.13236244 -0.07626807 0.03682807 0.007854427 -0.06981043 -0.036758203
0.17585354 0.5826829 0.6291736 0.4196085 0.35065296 0.5282128 0.4105606 -0.21646985
0.027994882 0.06819986 -0.03915918 0.073403455 -0.033399474 -0.0199203 0.11693431 0.03910624
-0.067436 -0.25345042 0.042135168 0.0097137615 -0.396983 -0.15586601 0.10299832 -0.001113529
0.113111615 0.24963832 -0.09837527 0.009154604 -0.2175316 -0.08219704 -0.02322574 0.2944804
0.013514293 0.010877198 -0.15620844 -0.09855606 -0.12655562 -0.1358247 -0.051702026 -0.25361487
-0.21539366 -0.41852438 -0.41525313 0.42576638 0.25721747 0.36398736 -0.54172665 -0.55058175
-0.19134733 -0.18305004 -0.65413207 -0.30732656 -0.7270258 -0.52609086 -0.025795868 0.123794846
-0.15721399 0.07885745 0.07827669 -0.058319114 -0.1671138 -0.28404862 -0.3795343 -0.45799848
-0.17835978 0.03900146 0.122909464 -0.5244772 -0.5256263 -0.057788875 0.20246151 0.1695128
0.06427251 0.09345485 0.18519345 -0.07847717 0.03538437 0.06554072 -0.2781682 -0.16558303
-0.06223464 -0.18792045 -0.17159535 -0.29099992 -0.2016238 0.1363757 -0.21915077 -0.38732606
-0.23379366 -0.1285925 -0.24634278 -0.54971063 -0.24245548 -0.4071134 0.008716728 -0.030385302
-0.45025098 -0.45875415 -0.07909088 0.01976333 -0.3767934 -0.3452272 -0.08071905 -0.12811437
0.27168366 0.1076081 -0.23112783 -0.24586229 -0.09354329 -0.048802778 -0.17499703 -0.123077944
-0.045480657 -0.35526246 0.035866946 0.01788504 -0.17957668 -0.040643163 0.15636759 0.083657786
-0.08354475 0.27416286 -0.0106757535 0.027836792 0.08549788 0.37849745 -0.22454652 -0.32563123
00000000: aabc cdbd 068c 0b3e d508 463e 4e37 bebe
00000010: 0fbe 17be 7b62 bcbe acd1 04be 9058 58be
00000020: accc 133d 70e9 0fbf 378a b8bd 9b82 2ebe
00000030: 1519 5bbe 2dae 58be 1348 163e 636c e3bd
00000040: 4031 b43c 8390 09be 95af 5e3d 1c59 4fbb
00000050: ad01 a2be 2999 983e 6f40 00be 642a 053e
00000060: 0b4e 863e 23c7 24bc 524a 703d 560e 19bc
00000070: af26 d43d 7ac5 41be 03d3 863e da22 d8bc
00000080: ef13 36bd 6fb9 98bd 5b06 aebd fb8b d8bd
00000090: 0f0a b5be dc70 b3be 12c1 aabd 725c a1bd
000000a0: 3ab2 22be 8418 56be 3355 7ebc 56ab 1c3e
000000b0: 91ac 4bbe d440 213f 0c62 223f 52a2 943e
000000c0: 70a0 cebb 7b57 5abd f141 faba e3ee 0d3f
000000d0: d890 c83e c52c 083e 6ec3 dfbc 3aa6 00be
000000e0: 2e7e 7e3b 6830 a83e 3218 a93d 57b2 ae3d
000000f0: ab8c 7bbd 6394 883e ddf3 193e ca7d 90bd
00000100: f005 543d b5a8 2f3e fbac e7be 6284 edbe
00000110: fac6 45be b8aa 6f3e 894d 46be c613 8bbe
00000120: 1a2c 103e b58e 13be 1ccb 98be d687 9a3d
00000130: f05a 50be a980 05be 7fcf bfbe 4e54 a6be
00000140: fd17 51be 8099 d43c 7bc3 40be b37d 303e
00000150: 9960 65be 90cb 13be 0f0a d13d 6aba 6abc
00000160: c962 843c e5fb 3f3d 81a0 a6be a971 17be
00000170: aeff 0fbf 8602 1bbf f9b2 2ebb 37bc 8cbe
00000180: 01c2 52bd 12f6 b9bd 1a45 48be 10df 82bc
00000190: f34c c0bd c74d febc d4e8 93bd 31f3 87bd
000001a0: 9748 b63d 729d d2bd b37e 973d cda4 c23e
000001b0: 40d4 89be d2d1 15bd 3af2 0dbe 661c 24bc
000001c0: 653b 173e 99c6 fe3d 2ad9 acbe 97e8 953d
000001d0: 8359 73be a9ef d63e 740d c83e 7729 723e
000001e0: ed0b 8f3e ca1e 873e 058a 073e 6f32 9cbd
000001f0: 08d9 163d dbaf 003c c5f8 8ebd c58f 16bd
00000200: f312 343e b52a 153f 8511 213f edd6 d63e
00000210: c988 b33e f438 073f 0035 d23e 46aa 5dbe
00000220: 8655 e53c 5eac 8b3d 6065 20bd 8d54 963d
00000230: e3cd 08bd e62f a3bc 417b ef3d dd2d 203d
00000240: e31b 8abd 41c4 81be ed95 2c3d 7826 1f3c
00000250: 5b41 cbbe 579b 1fbe c8f0 d23d d5f3 91ba
00000260: 10a7 e73d 30a1 7f3e f978 c9bd 31fd 153c
00000270: 9bc0 5ebe ec56 a8bd e843 bebc 23c6 963e
00000280: 0e6b 5d3c 4636 323c 1bf5 1fbe c2d7 c9bd
00000290: cc97 01be a115 0bbe 81c5 53bd cfd9 81be
000002a0: 2890 5cbe d448 d6be 0f9c d4be 0dfe d93e
000002b0: 02b2 833e 8d5c ba3e 99ae 0abf edf2 0cbf
000002c0: 8ef0 43be 7871 3bbe 3375 27bf e859 9dbe
000002d0: 5d1e 3abf e4ad 06bf db51 d3bc 2788 fd3d
000002e0: b4fc 20be 0480 a13d 874f a03d 06e0 6ebd
000002f0: e11f 2bbe d26e 91be 5252 c2be c77e eabe
00000300: f2a3 36be ffbf 1f3d f5b7 fb3d 2344 06bf
00000310: 728f 06bf 07b4 6cbd 1252 4f3e c394 2d3e
00000320: 4ea1 833d 4265 bf3d 5aa3 3d3e a3b8 a0bd
00000330: 33ef 103d 373a 863d 106c 8ebe 998e 29be
00000340: c0e9 7ebd 386e 40be b1b6 2fbe f1fd 94be
00000350: 7876 4ebe 12a6 0b3e 0f69 60be 9a4f c6be
00000360: 9b67 6fbe c1ad 03be 4841 7cbe d6b9 0cbf
00000370: 4046 78be 2b71 d0be 9bd0 0e3c 99ea f8bc
00000380: 4c87 e6be d3e1 eabe 66fa a1bd b5e6 a13c
00000390: 11eb c0be 9fc1 b0be 0750 a5bd 6a30 03be
000003a0: 1f1a 8b3e a361 dc3d c6ac 6cbe 53c3 7bbe
000003b0: a093 bfbd 6ce5 47bd 6c32 33be 4a10 fcbd
000003c0: ed49 3abd f6e4 b5be 38e9 123d a683 923c
000003d0: f3e2 37be 7279 26bd d31e 203e c654 ab3d
000003e0: 8319 abbd 135f 8c3e 5be9 2ebc fc09 e43c
000003f0: 8319 af3d 6bca c13e 86ef 65be 23b9 a6be
